…
        "id": "rlT3OhVuZLUs",
        "colab": {
          "base_uri": "https://localhost:8080/"
        },
        "outputId": "3686a695-31f6-482e-c78b-9c66d4160a78"
      },
      "outputs": [
        {
          "output_type": "stream",
          "name": "stdout",
          "text": [
            "Model: \"sequential\"\n",
            "_________________________________________________________________\n",
            " Layer (type)                Output Shape              Param #   \n",
            "=================================================================\n",
            " conv2d (Conv2D)             (None, 64, 64, 64)        640       \n",
            "                                                                 \n",
            " activation (Activation)     (None, 64, 64, 64)        0         \n",
            "                                                                 \n",
            " batch_normalization (BatchN  (None, 64, 64, 64)       256       \n",
            " ormalization)                                                   \n",
            "                                                                 \n",
            " conv2d_1 (Conv2D)           (None, 64, 64, 64)        36928     \n",
            "                                                                 \n",
            " activation_1 (Activation)   (None, 64, 64, 64)        0         \n",
            "                                                                 \n",
            " max_pooling2d (MaxPooling2D  (None, 32, 32, 64)       0         \n",
            " )                                                               \n",
            "                                                                 \n",
            " batch_normalization_1 (Batc  (None, 32, 32, 64)       256       \n",
            " hNormalization)                                                 \n",
            "                                                                 \n",
            " conv2d_2 (Conv2D)           (None, 32, 32, 128)       73856     \n",
            "                                                                 \n",
            " activation_2 (Activation)   (None, 32, 32, 128)       0         \n",
            "                                                                 \n",
            " batch_normalization_2 (Batc  (None, 32, 32, 128)      512       \n",
            " hNormalization)                                                 \n",
            "                                                                 \n",
            " conv2d_3 (Conv2D)           (None, 32, 32, 128)       147584    \n",
            "                                                                 \n",
            " activation_3 (Activation)   (None, 32, 32, 128)       0         \n",
            "                                                                 \n",
            " max_pooling2d_1 (MaxPooling  (None, 16, 16, 128)      0         \n",
            " 2D)                                                             \n",
            "                                                                 \n",
            " batch_normalization_3 (Batc  (None, 16, 16, 128)      512       \n",
            " hNormalization)                                                 \n",
            "                                                                 \n",
            " conv2d_4 (Conv2D)           (None, 16, 16, 256)       295168    \n",
            "                                                                 \n",
            " activation_4 (Activation)   (None, 16, 16, 256)       0         \n",
            "                                                                 \n",
            " batch_normalization_4 (Batc  (None, 16, 16, 256)      1024      \n",
            " hNormalization)                                                 \n",
            "                                                                 \n",
            " conv2d_5 (Conv2D)           (None, 16, 16, 256)       590080    \n",
            "                                                                 \n",
            " activation_5 (Activation)   (None, 16, 16, 256)       0         \n",
            "                                                                 \n",
            " batch_normalization_5 (Batc  (None, 16, 16, 256)      1024      \n",
            " hNormalization)                                                 \n",
            "                                                                 \n",
            " conv2d_6 (Conv2D)           (None, 16, 16, 256)       590080    \n",
            "                                                                 \n",
            " activation_6 (Activation)   (None, 16, 16, 256)       0         \n",
            "                                                                 \n",
            " max_pooling2d_2 (MaxPooling  (None, 8, 8, 256)        0         \n",
            " 2D)                                                             \n",
            "                                                                 \n",
            " batch_normalization_6 (Batc  (None, 8, 8, 256)        1024      \n",
            " hNormalization)                                                 \n",
            "                                                                 \n",
            " conv2d_7 (Conv2D)           (None, 8, 8, 512)         1180160   \n",
            "                                                                 \n",
            " activation_7 (Activation)   (None, 8, 8, 512)         0         \n",
            "                                                                 \n",
            " batch_normalization_7 (Batc  (None, 8, 8, 512)        2048      \n",
            " hNormalization)                                                 \n",
            "                                                                 \n",
            " conv2d_8 (Conv2D)           (None, 8, 8, 512)         2359808   \n",
            "                                                                 \n",
            " activation_8 (Activation)   (None, 8, 8, 512)         0         \n",
            "                                                                 \n",
            " batch_normalization_8 (Batc  (None, 8, 8, 512)        2048      \n",
            " hNormalization)                                                 \n",
            "                                                                 \n",
            " conv2d_9 (Conv2D)           (None, 8, 8, 512)         2359808   \n",
            "                                                                 \n",
            " activation_9 (Activation)   (None, 8, 8, 512)         0         \n",
            "                                                                 \n",
            " max_pooling2d_3 (MaxPooling  (None, 4, 4, 512)        0         \n",
            " 2D)                                                             \n",
            "                                                                 \n",
            " batch_normalization_9 (Batc  (None, 4, 4, 512)        2048      \n",
            " hNormalization)                                                 \n",
            "                                                                 \n",
            " conv2d_10 (Conv2D)          (None, 4, 4, 512)         2359808   \n",
            "                                                                 \n",
            " activation_10 (Activation)  (None, 4, 4, 512)         0         \n",
            "                                                                 \n",
            " batch_normalization_10 (Bat  (None, 4, 4, 512)        2048      \n",
            " chNormalization)                                                \n",
            "                                                                 \n",
            " conv2d_11 (Conv2D)          (None, 4, 4, 512)         2359808   \n",
            "                                                                 \n",
            " activation_11 (Activation)  (None, 4, 4, 512)         0         \n",
            "                                                                 \n",
            " batch_normalization_11 (Bat  (None, 4, 4, 512)        2048      \n",
            " chNormalization)                                                \n",
            "                                                                 \n",
            " conv2d_12 (Conv2D)          (None, 4, 4, 512)         2359808   \n",
            "                                                                 \n",
            " activation_12 (Activation)  (None, 4, 4, 512)         0         \n",
            "                                                                 \n",
            " max_pooling2d_4 (MaxPooling  (None, 2, 2, 512)        0         \n",
            " 2D)                                                             \n",
            "                                                                 \n",
            " batch_normalization_12 (Bat  (None, 2, 2, 512)        2048      \n",
            " chNormalization)                                                \n",
            "                                                                 \n",
            " flatten (Flatten)           (None, 2048)              0         \n",
            "                                                                 \n",
            " dense (Dense)               (None, 4096)              8392704   \n",
            "                                                                 \n",
            " activation_13 (Activation)  (None, 4096)              0         \n",
            "                                                                 \n",
            " batch_normalization_13 (Bat  (None, 4096)             16384     \n",
            " chNormalization)                                                \n",
            "                                                                 \n",
            " dropout (Dropout)           (None, 4096)              0         \n",
            "                                                                 \n",
            " dense_1 (Dense)             (None, 4096)              16781312  \n",
            "                                                                 \n",
            " activation_14 (Activation)  (None, 4096)              0         \n",
            "                                                                 \n",
            " batch_normalization_14 (Bat  (None, 4096)             16384     \n",
            " chNormalization)                                                \n",
            "                                                                 \n",
            " dropout_1 (Dropout)         (None, 4096)              0         \n",
            "                                                                 \n",
            " dense_2 (Dense)             (None, 1000)              4097000   \n",
            "                                                                 \n",
            " activation_15 (Activation)  (None, 1000)              0         \n",
            "                                                                 \n",
            " batch_normalization_15 (Bat  (None, 1000)             4000      \n",
            " chNormalization)                                                \n",
            "                                                                 \n",
            " dropout_2 (Dropout)         (None, 1000)              0         \n",
            "                                                                 \n",
            " dense_3 (Dense)             (None, 2)                 2002      \n",
            "                                                                 \n",
            "=================================================================\n",
            "Total params: 44,040,218\n",
            "Trainable params: 44,013,386\n",
            "Non-trainable params: 26,832\n",
            "_________________________________________________________________\n"
          ]
…
